…
desired hpe model designed for mmWave PC. The model parameter for PointTransformer reimplemented 
for mmFi is as follows:

.. GENERATED FROM PYTHON SOURCE LINES 64-65

In[7]:

.. GENERATED FROM PYTHON SOURCE LINES 65-75

.. code-block:: Python


    from pysensing.mmwave.PC.model.hpe import PointTransformerReg
    model = PointTransformerReg(
                        input_dim = 5,
                        nblocks = 5,
                        n_p = 17
                    )
    print(model)






.. rst-class:: sphx-glr-script-out

 .. code-block:: none

    PointTransformerReg(
      (backbone): Backbone(
        (fc1): Sequential(
          (0): Linear(in_features=5, out_features=32, bias=True)
          (1): ReLU()
          (2): Linear(in_features=32, out_features=32, bias=True)
        )
        (transformer1): TransformerBlock(
          (fc1): Linear(in_features=32, out_features=128, bias=True)
          (fc2): Linear(in_features=128, out_features=32, bias=True)
          (fc_delta): Sequential(
            (0): Linear(in_features=3, out_features=128, bias=True)
            (1): ReLU()
            (2): Linear(in_features=128, out_features=128, bias=True)
          )
          (fc_gamma): Sequential(
            (0): Linear(in_features=128, out_features=128, bias=True)
            (1): ReLU()
            (2): Linear(in_features=128, out_features=128, bias=True)
          )
          (w_qs): Linear(in_features=128, out_features=128, bias=False)
          (w_ks): Linear(in_features=128, out_features=128, bias=False)
          (w_vs): Linear(in_features=128, out_features=128, bias=False)
        )
        (transition_downs): ModuleList(
          (0): TransitionDown(
            (conv1): Sequential(
              (0): Conv1d(35, 64, kernel_size=(1,), stride=(1,))
              (1): BatchNorm1d(64, eps=1e-05, momentum=0.1, affine=True, track_running_stats=True)
              (2): ReLU()
            )
            (conv2): Sequential(
              (0): Conv1d(64, 64, kernel_size=(1,), stride=(1,))
              (1): BatchNorm1d(64, eps=1e-05, momentum=0.1, affine=True, track_running_stats=True)
              (2): ReLU()
            )
          )
          (1): TransitionDown(
            (conv1): Sequential(
              (0): Conv1d(67, 128, kernel_size=(1,), stride=(1,))
              (1): BatchNorm1d(128, eps=1e-05, momentum=0.1, affine=True, track_running_stats=True)
              (2): ReLU()
            )
            (conv2): Sequential(
              (0): Conv1d(128, 128, kernel_size=(1,), stride=(1,))
              (1): BatchNorm1d(128, eps=1e-05, momentum=0.1, affine=True, track_running_stats=True)
              (2): ReLU()
            )
          )
          (2): TransitionDown(
            (conv1): Sequential(
              (0): Conv1d(131, 256, kernel_size=(1,), stride=(1,))
              (1): BatchNorm1d(256, eps=1e-05, momentum=0.1, affine=True, track_running_stats=True)
              (2): ReLU()
            )
            (conv2): Sequential(
              (0): Conv1d(256, 256, kernel_size=(1,), stride=(1,))
              (1): BatchNorm1d(256, eps=1e-05, momentum=0.1, affine=True, track_running_stats=True)
              (2): ReLU()
            )
          )
          (3): TransitionDown(
            (conv1): Sequential(
              (0): Conv1d(259, 512, kernel_size=(1,), stride=(1,))
              (1): BatchNorm1d(512, eps=1e-05, momentum=0.1, affine=True, track_running_stats=True)
              (2): ReLU()
            )
            (conv2): Sequential(
              (0): Conv1d(512, 512, kernel_size=(1,), stride=(1,))
              (1): BatchNorm1d(512, eps=1e-05, momentum=0.1, affine=True, track_running_stats=True)
              (2): ReLU()
            )
          )
        )
        (transformers): ModuleList(
          (0): TransformerBlock(
            (fc1): Linear(in_features=64, out_features=128, bias=True)
            (fc2): Linear(in_features=128, out_features=64, bias=True)
            (fc_delta): Sequential(
              (0): Linear(in_features=3, out_features=128, bias=True)
              (1): ReLU()
              (2): Linear(in_features=128, out_features=128, bias=True)
            )
            (fc_gamma): Sequential(
              (0): Linear(in_features=128, out_features=128, bias=True)
              (1): ReLU()
              (2): Linear(in_features=128, out_features=128, bias=True)
            )
            (w_qs): Linear(in_features=128, out_features=128, bias=False)
            (w_ks): Linear(in_features=128, out_features=128, bias=False)
            (w_vs): Linear(in_features=128, out_features=128, bias=False)
          )
          (1): TransformerBlock(
            (fc1): Linear(in_features=128, out_features=128, bias=True)
            (fc2): Linear(in_features=128, out_features=128, bias=True)
            (fc_delta): Sequential(
              (0): Linear(in_features=3, out_features=128, bias=True)
              (1): ReLU()
              (2): Linear(in_features=128, out_features=128, bias=True)
            )
            (fc_gamma): Sequential(
              (0): Linear(in_features=128, out_features=128, bias=True)
              (1): ReLU()
              (2): Linear(in_features=128, out_features=128, bias=True)
            )
            (w_qs): Linear(in_features=128, out_features=128, bias=False)
            (w_ks): Linear(in_features=128, out_features=128, bias=False)
            (w_vs): Linear(in_features=128, out_features=128, bias=False)
          )
          (2): TransformerBlock(
            (fc1): Linear(in_features=256, out_features=128, bias=True)
            (fc2): Linear(in_features=128, out_features=256, bias=True)
            (fc_delta): Sequential(
              (0): Linear(in_features=3, out_features=128, bias=True)
              (1): ReLU()
              (2): Linear(in_features=128, out_features=128, bias=True)
            )
            (fc_gamma): Sequential(
              (0): Linear(in_features=128, out_features=128, bias=True)
              (1): ReLU()
              (2): Linear(in_features=128, out_features=128, bias=True)
            )
            (w_qs): Linear(in_features=128, out_features=128, bias=False)
            (w_ks): Linear(in_features=128, out_features=128, bias=False)
            (w_vs): Linear(in_features=128, out_features=128, bias=False)
          )
          (3): TransformerBlock(
            (fc1): Linear(in_features=512, out_features=128, bias=True)
            (fc2): Linear(in_features=128, out_features=512, bias=True)
            (fc_delta): Sequential(
              (0): Linear(in_features=3, out_features=128, bias=True)
              (1): ReLU()
              (2): Linear(in_features=128, out_features=128, bias=True)
            )
            (fc_gamma): Sequential(
              (0): Linear(in_features=128, out_features=128, bias=True)
              (1): ReLU()
              (2): Linear(in_features=128, out_features=128, bias=True)
            )
            (w_qs): Linear(in_features=128, out_features=128, bias=False)
            (w_ks): Linear(in_features=128, out_features=128, bias=False)
            (w_vs): Linear(in_features=128, out_features=128, bias=False)
          )
        )
      )
      (transformer): Transformer(
        (layers): ModuleList(
          (0-4): 5 x ModuleList(
            (0): Residual(
              (fn): PreNorm(
                (norm): LayerNorm((512,), eps=1e-05, elementwise_affine=True)
                (fn): Attention(
                  (to_k): Linear(in_features=512, out_features=512, bias=False)
                  (to_v): Linear(in_features=512, out_features=512, bias=False)
                  (to_q): Linear(in_features=512, out_features=512, bias=False)
                  (to_out): Sequential(
                    (0): Linear(in_features=512, out_features=512, bias=True)
                    (1): GELU(approximate='none')
                    (2): Dropout(p=0.0, inplace=False)
                  )
                )
              )
            )
            (1): Residual(
              (fn): PreNorm(
                (norm): LayerNorm((512,), eps=1e-05, elementwise_affine=True)
                (fn): FeedForward(
                  (net): Sequential(
                    (0): Linear(in_features=512, out_features=256, bias=True)
                    (1): GELU(approximate='none')
                    (2): Dropout(p=0.0, inplace=False)
                    (3): Linear(in_features=256, out_features=512, bias=True)
                    (4): Dropout(p=0.0, inplace=False)
                  )
                )
              )
            )
          )
        )
      )
      (fc2): Sequential(
        (0): Linear(in_features=512, out_features=256, bias=True)
        (1): Dropout(p=0.0, inplace=False)
        (2): ReLU()
        (3): Linear(in_features=256, out_features=32, bias=True)
      )
      (fc3): Sequential(
        (0): ReLU()
        (1): Linear(in_features=32, out_features=64, bias=True)
        (2): Dropout(p=0.0, inplace=False)
        (3): ReLU()
        (4): Linear(in_features=64, out_features=3, bias=True)
      )
    )




.. GENERATED FROM PYTHON SOURCE LINES 76-77

A shortcut for loading the hpe model to avoid the tedious hyper-parameter setting.

.. GENERATED FROM PYTHON SOURCE LINES 80-81

In[8]:

.. GENERATED FROM PYTHON SOURCE LINES 81-88

.. code-block:: Python



    from pysensing.mmwave.PC.model.hpe import load_hpe_model
    model = load_hpe_model("MetaFi", "PointTransformer")
    print(model)






.. rst-class:: sphx-glr-script-out

 .. code-block:: none

    PointTransformerReg(
      (backbone): Backbone(
        (fc1): Sequential(
          (0): Linear(in_features=5, out_features=32, bias=True)
          (1): ReLU()
          (2): Linear(in_features=32, out_features=32, bias=True)
        )
        (transformer1): TransformerBlock(
          (fc1): Linear(in_features=32, out_features=128, bias=True)
          (fc2): Linear(in_features=128, out_features=32, bias=True)
          (fc_delta): Sequential(
            (0): Linear(in_features=3, out_features=128, bias=True)
            (1): ReLU()
            (2): Linear(in_features=128, out_features=128, bias=True)
          )
          (fc_gamma): Sequential(
            (0): Linear(in_features=128, out_features=128, bias=True)
            (1): ReLU()
            (2): Linear(in_features=128, out_features=128, bias=True)
          )
          (w_qs): Linear(in_features=128, out_features=128, bias=False)
          (w_ks): Linear(in_features=128, out_features=128, bias=False)
          (w_vs): Linear(in_features=128, out_features=128, bias=False)
        )
        (transition_downs): ModuleList(
          (0): TransitionDown(
            (conv1): Sequential(
              (0): Conv1d(35, 64, kernel_size=(1,), stride=(1,))
              (1): BatchNorm1d(64, eps=1e-05, momentum=0.1, affine=True, track_running_stats=True)
              (2): ReLU()
            )
            (conv2): Sequential(
              (0): Conv1d(64, 64, kernel_size=(1,), stride=(1,))
              (1): BatchNorm1d(64, eps=1e-05, momentum=0.1, affine=True, track_running_stats=True)
              (2): ReLU()
            )
          )
          (1): TransitionDown(
            (conv1): Sequential(
              (0): Conv1d(67, 128, kernel_size=(1,), stride=(1,))
              (1): BatchNorm1d(128, eps=1e-05, momentum=0.1, affine=True, track_running_stats=True)
              (2): ReLU()
            )
            (conv2): Sequential(
              (0): Conv1d(128, 128, kernel_size=(1,), stride=(1,))
              (1): BatchNorm1d(128, eps=1e-05, momentum=0.1, affine=True, track_running_stats=True)
              (2): ReLU()
            )
          )
          (2): TransitionDown(
            (conv1): Sequential(
              (0): Conv1d(131, 256, kernel_size=(1,), stride=(1,))
              (1): BatchNorm1d(256, eps=1e-05, momentum=0.1, affine=True, track_running_stats=True)
              (2): ReLU()
            )
            (conv2): Sequential(
              (0): Conv1d(256, 256, kernel_size=(1,), stride=(1,))
              (1): BatchNorm1d(256, eps=1e-05, momentum=0.1, affine=True, track_running_stats=True)
              (2): ReLU()
            )
          )
          (3): TransitionDown(
            (conv1): Sequential(
              (0): Conv1d(259, 512, kernel_size=(1,), stride=(1,))
              (1): BatchNorm1d(512, eps=1e-05, momentum=0.1, affine=True, track_running_stats=True)
              (2): ReLU()
            )
            (conv2): Sequential(
              (0): Conv1d(512, 512, kernel_size=(1,), stride=(1,))
              (1): BatchNorm1d(512, eps=1e-05, momentum=0.1, affine=True, track_running_stats=True)
              (2): ReLU()
            )
          )
        )
        (transformers): ModuleList(
          (0): TransformerBlock(
            (fc1): Linear(in_features=64, out_features=128, bias=True)
            (fc2): Linear(in_features=128, out_features=64, bias=True)
            (fc_delta): Sequential(
              (0): Linear(in_features=3, out_features=128, bias=True)
              (1): ReLU()
              (2): Linear(in_features=128, out_features=128, bias=True)
            )
            (fc_gamma): Sequential(
              (0): Linear(in_features=128, out_features=128, bias=True)
              (1): ReLU()
              (2): Linear(in_features=128, out_features=128, bias=True)
            )
            (w_qs): Linear(in_features=128, out_features=128, bias=False)
            (w_ks): Linear(in_features=128, out_features=128, bias=False)
            (w_vs): Linear(in_features=128, out_features=128, bias=False)
          )
          (1): TransformerBlock(
            (fc1): Linear(in_features=128, out_features=128, bias=True)
            (fc2): Linear(in_features=128, out_features=128, bias=True)
            (fc_delta): Sequential(
              (0): Linear(in_features=3, out_features=128, bias=True)
              (1): ReLU()
              (2): Linear(in_features=128, out_features=128, bias=True)
            )
            (fc_gamma): Sequential(
              (0): Linear(in_features=128, out_features=128, bias=True)
              (1): ReLU()
              (2): Linear(in_features=128, out_features=128, bias=True)
            )
            (w_qs): Linear(in_features=128, out_features=128, bias=False)
            (w_ks): Linear(in_features=128, out_features=128, bias=False)
            (w_vs): Linear(in_features=128, out_features=128, bias=False)
          )
          (2): TransformerBlock(
            (fc1): Linear(in_features=256, out_features=128, bias=True)
            (fc2): Linear(in_features=128, out_features=256, bias=True)
            (fc_delta): Sequential(
              (0): Linear(in_features=3, out_features=128, bias=True)
              (1): ReLU()
              (2): Linear(in_features=128, out_features=128, bias=True)
            )
            (fc_gamma): Sequential(
              (0): Linear(in_features=128, out_features=128, bias=True)
              (1): ReLU()
              (2): Linear(in_features=128, out_features=128, bias=True)
            )
            (w_qs): Linear(in_features=128, out_features=128, bias=False)
            (w_ks): Linear(in_features=128, out_features=128, bias=False)
            (w_vs): Linear(in_features=128, out_features=128, bias=False)
          )
          (3): TransformerBlock(
            (fc1): Linear(in_features=512, out_features=128, bias=True)
            (fc2): Linear(in_features=128, out_features=512, bias=True)
            (fc_delta): Sequential(
              (0): Linear(in_features=3, out_features=128, bias=True)
              (1): ReLU()
              (2): Linear(in_features=128, out_features=128, bias=True)
            )
            (fc_gamma): Sequential(
              (0): Linear(in_features=128, out_features=128, bias=True)
              (1): ReLU()
              (2): Linear(in_features=128, out_features=128, bias=True)
            )
            (w_qs): Linear(in_features=128, out_features=128, bias=False)
            (w_ks): Linear(in_features=128, out_features=128, bias=False)
            (w_vs): Linear(in_features=128, out_features=128, bias=False)
          )
        )
      )
      (transformer): Transformer(
        (layers): ModuleList(
          (0-4): 5 x ModuleList(
            (0): Residual(
              (fn): PreNorm(
                (norm): LayerNorm((512,), eps=1e-05, elementwise_affine=True)
                (fn): Attention(
                  (to_k): Linear(in_features=512, out_features=512, bias=False)
                  (to_v): Linear(in_features=512, out_features=512, bias=False)
                  (to_q): Linear(in_features=512, out_features=512, bias=False)
                  (to_out): Sequential(
                    (0): Linear(in_features=512, out_features=512, bias=True)
                    (1): GELU(approximate='none')
                    (2): Dropout(p=0.0, inplace=False)
                  )
                )
              )
            )
            (1): Residual(
              (fn): PreNorm(
                (norm): LayerNorm((512,), eps=1e-05, elementwise_affine=True)
                (fn): FeedForward(
                  (net): Sequential(
                    (0): Linear(in_features=512, out_features=256, bias=True)
                    (1): GELU(approximate='none')
                    (2): Dropout(p=0.0, inplace=False)
                    (3): Linear(in_features=256, out_features=512, bias=True)
                    (4): Dropout(p=0.0, inplace=False)
                  )
                )
              )
            )
          )
        )
      )
      (fc2): Sequential(
        (0): Linear(in_features=512, out_features=256, bias=True)
        (1): Dropout(p=0.0, inplace=False)
        (2): ReLU()
        (3): Linear(in_features=256, out_features=32, bias=True)
      )
      (fc3): Sequential(
        (0): ReLU()
        (1): Linear(in_features=32, out_features=64, bias=True)
        (2): Dropout(p=0.0, inplace=False)
        (3): ReLU()
        (4): Linear(in_features=64, out_features=3, bias=True)
      )
    )




.. GENERATED FROM PYTHON SOURCE LINES 89-91

Model Train
------------------------

.. GENERATED FROM PYTHON SOURCE LINES 93-96

pysensing library support quick training of model with the following steps. The training interface 
incorporates pytorch loss functions, optimizers and dataloaders to facilate training. 
An example is provided for how to define the aforemetioned terms.
…
Load the pretrained model, e.g. from  https://pysensing.oss-ap-southeast-1.aliyuncs.com/pretrain/mmwave_pc/hpe/MetaFi_PointTransformer.pth 
, and perform human pose estimation!

.. GENERATED FROM PYTHON SOURCE LINES 137-138

In[13]:

.. GENERATED FROM PYTHON SOURCE LINES 138-145

.. code-block:: Python


    # load pretrained model
    from pysensing.mmwave.PC.inference import load_pretrain
    model = load_pretrain(model, "MetaFi", "PointTransformer").to(device)
    model.eval()






.. rst-class:: sphx-glr-script-out

 .. code-block:: none

    Use pretrained model!

    PointTransformerReg(
      (backbone): Backbone(
        (fc1): Sequential(
          (0): Linear(in_features=5, out_features=32, bias=True)
          (1): ReLU()
          (2): Linear(in_features=32, out_features=32, bias=True)
        )
        (transformer1): TransformerBlock(
          (fc1): Linear(in_features=32, out_features=128, bias=True)
          (fc2): Linear(in_features=128, out_features=32, bias=True)
          (fc_delta): Sequential(
            (0): Linear(in_features=3, out_features=128, bias=True)
            (1): ReLU()
            (2): Linear(in_features=128, out_features=128, bias=True)
          )
          (fc_gamma): Sequential(
            (0): Linear(in_features=128, out_features=128, bias=True)
            (1): ReLU()
            (2): Linear(in_features=128, out_features=128, bias=True)
          )
          (w_qs): Linear(in_features=128, out_features=128, bias=False)
          (w_ks): Linear(in_features=128, out_features=128, bias=False)
          (w_vs): Linear(in_features=128, out_features=128, bias=False)
        )
        (transition_downs): ModuleList(
          (0): TransitionDown(
            (conv1): Sequential(
              (0): Conv1d(35, 64, kernel_size=(1,), stride=(1,))
              (1): BatchNorm1d(64, eps=1e-05, momentum=0.1, affine=True, track_running_stats=True)
              (2): ReLU()
            )
            (conv2): Sequential(
              (0): Conv1d(64, 64, kernel_size=(1,), stride=(1,))
              (1): BatchNorm1d(64, eps=1e-05, momentum=0.1, affine=True, track_running_stats=True)
              (2): ReLU()
            )
          )
          (1): TransitionDown(
            (conv1): Sequential(
              (0): Conv1d(67, 128, kernel_size=(1,), stride=(1,))
              (1): BatchNorm1d(128, eps=1e-05, momentum=0.1, affine=True, track_running_stats=True)
              (2): ReLU()
            )
            (conv2): Sequential(
              (0): Conv1d(128, 128, kernel_size=(1,), stride=(1,))
              (1): BatchNorm1d(128, eps=1e-05, momentum=0.1, affine=True, track_running_stats=True)
              (2): ReLU()
            )
          )
          (2): TransitionDown(
            (conv1): Sequential(
              (0): Conv1d(131, 256, kernel_size=(1,), stride=(1,))
              (1): BatchNorm1d(256, eps=1e-05, momentum=0.1, affine=True, track_running_stats=True)
              (2): ReLU()
            )
            (conv2): Sequential(
              (0): Conv1d(256, 256, kernel_size=(1,), stride=(1,))
              (1): BatchNorm1d(256, eps=1e-05, momentum=0.1, affine=True, track_running_stats=True)
              (2): ReLU()
            )
          )
          (3): TransitionDown(
            (conv1): Sequential(
              (0): Conv1d(259, 512, kernel_size=(1,), stride=(1,))
              (1): BatchNorm1d(512, eps=1e-05, momentum=0.1, affine=True, track_running_stats=True)
              (2): ReLU()
            )
            (conv2): Sequential(
              (0): Conv1d(512, 512, kernel_size=(1,), stride=(1,))
              (1): BatchNorm1d(512, eps=1e-05, momentum=0.1, affine=True, track_running_stats=True)
              (2): ReLU()
            )
          )
        )
        (transformers): ModuleList(
          (0): TransformerBlock(
            (fc1): Linear(in_features=64, out_features=128, bias=True)
            (fc2): Linear(in_features=128, out_features=64, bias=True)
            (fc_delta): Sequential(
              (0): Linear(in_features=3, out_features=128, bias=True)
              (1): ReLU()
              (2): Linear(in_features=128, out_features=128, bias=True)
            )
            (fc_gamma): Sequential(
              (0): Linear(in_features=128, out_features=128, bias=True)
              (1): ReLU()
              (2): Linear(in_features=128, out_features=128, bias=True)
            )
            (w_qs): Linear(in_features=128, out_features=128, bias=False)
            (w_ks): Linear(in_features=128, out_features=128, bias=False)
            (w_vs): Linear(in_features=128, out_features=128, bias=False)
          )
          (1): TransformerBlock(
            (fc1): Linear(in_features=128, out_features=128, bias=True)
            (fc2): Linear(in_features=128, out_features=128, bias=True)
            (fc_delta): Sequential(
              (0): Linear(in_features=3, out_features=128, bias=True)
              (1): ReLU()
              (2): Linear(in_features=128, out_features=128, bias=True)
            )
            (fc_gamma): Sequential(
              (0): Linear(in_features=128, out_features=128, bias=True)
              (1): ReLU()
              (2): Linear(in_features=128, out_features=128, bias=True)
            )
            (w_qs): Linear(in_features=128, out_features=128, bias=False)
            (w_ks): Linear(in_features=128, out_features=128, bias=False)
            (w_vs): Linear(in_features=128, out_features=128, bias=False)
          )
          (2): TransformerBlock(
            (fc1): Linear(in_features=256, out_features=128, bias=True)
            (fc2): Linear(in_features=128, out_features=256, bias=True)
            (fc_delta): Sequential(
              (0): Linear(in_features=3, out_features=128, bias=True)
              (1): ReLU()
              (2): Linear(in_features=128, out_features=128, bias=True)
            )
            (fc_gamma): Sequential(
              (0): Linear(in_features=128, out_features=128, bias=True)
              (1): ReLU()
              (2): Linear(in_features=128, out_features=128, bias=True)
            )
            (w_qs): Linear(in_features=128, out_features=128, bias=False)
            (w_ks): Linear(in_features=128, out_features=128, bias=False)
            (w_vs): Linear(in_features=128, out_features=128, bias=False)
          )
          (3): TransformerBlock(
            (fc1): Linear(in_features=512, out_features=128, bias=True)
            (fc2): Linear(in_features=128, out_features=512, bias=True)
            (fc_delta): Sequential(
              (0): Linear(in_features=3, out_features=128, bias=True)
              (1): ReLU()
              (2): Linear(in_features=128, out_features=128, bias=True)
            )
            (fc_gamma): Sequential(
              (0): Linear(in_features=128, out_features=128, bias=True)
              (1): ReLU()
              (2): Linear(in_features=128, out_features=128, bias=True)
            )
            (w_qs): Linear(in_features=128, out_features=128, bias=False)
            (w_ks): Linear(in_features=128, out_features=128, bias=False)
            (w_vs): Linear(in_features=128, out_features=128, bias=False)
          )
        )
      )
      (transformer): Transformer(
        (layers): ModuleList(
          (0-4): 5 x ModuleList(
            (0): Residual(
              (fn): PreNorm(
                (norm): LayerNorm((512,), eps=1e-05, elementwise_affine=True)
                (fn): Attention(
                  (to_k): Linear(in_features=512, out_features=512, bias=False)
                  (to_v): Linear(in_features=512, out_features=512, bias=False)
                  (to_q): Linear(in_features=512, out_features=512, bias=False)
                  (to_out): Sequential(
                    (0): Linear(in_features=512, out_features=512, bias=True)
                    (1): GELU(approximate='none')
                    (2): Dropout(p=0.0, inplace=False)
                  )
                )
              )
            )
            (1): Residual(
              (fn): PreNorm(
                (norm): LayerNorm((512,), eps=1e-05, elementwise_affine=True)
                (fn): FeedForward(
                  (net): Sequential(
                    (0): Linear(in_features=512, out_features=256, bias=True)
                    (1): GELU(approximate='none')
                    (2): Dropout(p=0.0, inplace=False)
                    (3): Linear(in_features=256, out_features=512, bias=True)
                    (4): Dropout(p=0.0, inplace=False)
                  )
                )
              )
            )
          )
        )
      )
      (fc2): Sequential(
        (0): Linear(in_features=512, out_features=256, bias=True)
        (1): Dropout(p=0.0, inplace=False)
        (2): ReLU()
        (3): Linear(in_features=256, out_features=32, bias=True)
      )
      (fc3): Sequential(
        (0): ReLU()
        (1): Linear(in_features=32, out_features=64, bias=True)
        (2): Dropout(p=0.0, inplace=False)
        (3): ReLU()
        (4): Linear(in_features=64, out_features=3, bias=True)
      )
    )



.. GENERATED FROM PYTHON SOURCE LINES 146-147

Test the model on testing dataset.

.. GENERATED FROM PYTHON SOURCE LINES 149-150

In[14]:

.. GENERATED FROM PYTHON SOURCE LINES 150-153

.. code-block:: Python

    from pysensing.mmwave.PC.inference.hpe import hpe_test
    # hpe_test(model, test_loader, criterion=criterion, device=device)

…
