…
.. rst-class:: sphx-glr-script-out

 .. code-block:: none

    Loading pedestrian tracking CIR dataset in mod 1...
    torch.Size([64, 1, 500, 2])
    torch.Size([64, 1])




.. GENERATED FROM PYTHON SOURCE LINES 63-67

Load the model
-----------------------------------
Model zoo:
ResNet

.. GENERATED FROM PYTHON SOURCE LINES 67-71

.. code-block:: Python


    model = load_localization_model(dataset_name = 'human_tracking', model_name = 'resnet')
    print(model)





.. rst-class:: sphx-glr-script-out

 .. code-block:: none

    human_tracking_resnet(
      (convblock1): Sequential(
        (0): Conv2d(1, 8, kernel_size=(10, 1), stride=(1, 1), padding=(4, 0))
        (1): BatchNorm2d(8, eps=1e-05, momentum=0.1, affine=True, track_running_stats=True)
        (2): ReLU()
      )
      (maxpool1): MaxPool2d(kernel_size=(10, 1), stride=(5, 1), padding=0, dilation=1, ceil_mode=False)
      (convblock2): Sequential(
        (0): Conv2d(8, 16, kernel_size=(4, 2), stride=(1, 1), padding=(1, 0))
        (1): BatchNorm2d(16, eps=1e-05, momentum=0.1, affine=True, track_running_stats=True)
        (2): ReLU()
      )
      (maxpool2): MaxPool2d(kernel_size=(2, 2), stride=(2, 2), padding=0, dilation=1, ceil_mode=False)
      (block1): Block(
        (conv1): Conv2d(16, 32, kernel_size=(4, 1), stride=(2, 1), padding=(1, 0), bias=False)
        (batch_norm1): BatchNorm2d(32, eps=1e-05, momentum=0.1, affine=True, track_running_stats=True)
        (conv2): Conv2d(32, 32, kernel_size=(4, 1), stride=(1, 1), padding=(1, 0), bias=False)
        (batch_norm2): BatchNorm2d(32, eps=1e-05, momentum=0.1, affine=True, track_running_stats=True)
        (relu): ReLU()
        (res): Sequential(
          (0): Conv2d(16, 32, kernel_size=(1, 1), stride=(2, 1), bias=False)
          (1): BatchNorm2d(32, eps=1e-05, momentum=0.1, affine=True, track_running_stats=True)
        )
      )
      (block2): Block(
        (conv1): Conv2d(32, 64, kernel_size=(4, 1), stride=(2, 1), padding=(1, 0), bias=False)
        (batch_norm1): BatchNorm2d(64, eps=1e-05, momentum=0.1, affine=True, track_running_stats=True)
        (conv2): Conv2d(64, 64, kernel_size=(4, 1), stride=(1, 1), padding=(1, 0), bias=False)
        (batch_norm2): BatchNorm2d(64, eps=1e-05, momentum=0.1, affine=True, track_running_stats=True)
        (relu): ReLU()
        (res): Sequential(
          (0): Conv2d(32, 64, kernel_size=(1, 1), stride=(2, 1), bias=False)
          (1): BatchNorm2d(64, eps=1e-05, momentum=0.1, affine=True, track_running_stats=True)
        )
      )
      (block3): Block(
        (conv1): Conv2d(64, 128, kernel_size=(4, 1), stride=(2, 1), padding=(1, 0), bias=False)
        (batch_norm1): BatchNorm2d(128, eps=1e-05, momentum=0.1, affine=True, track_running_stats=True)
        (conv2): Conv2d(128, 128, kernel_size=(4, 1), stride=(1, 1), padding=(1, 0), bias=False)
        (batch_norm2): BatchNorm2d(128, eps=1e-05, momentum=0.1, affine=True, track_running_stats=True)
        (relu): ReLU()
        (res): Sequential(
          (0): Conv2d(64, 128, kernel_size=(1, 1), stride=(2, 1), bias=False)
          (1): BatchNorm2d(128, eps=1e-05, momentum=0.1, affine=True, track_running_stats=True)
        )
      )
      (maxpool3): MaxPool2d(kernel_size=(7, 1), stride=(7, 1), padding=0, dilation=1, ceil_mode=False)
      (fc): Sequential(
        (0): Linear(in_features=128, out_features=10, bias=True)
        (1): Linear(in_features=10, out_features=1, bias=True)
      )
    )




.. GENERATED FROM PYTHON SOURCE LINES 72-74

Model train
-----------------------------------

.. GENERATED FROM PYTHON SOURCE LINES 74-87

.. code-block:: Python


    criterion = nn.CrossEntropyLoss()
    device = torch.device("cuda" if torch.cuda.is_available() else "cpu")

    localization_training(
        root = root,
        dataset_name='pedestrian_tracking_mod1_CIR',
…
