…
    from pysensing.acoustic.inference.training.AFPILD_utils.training import afpild_train

    afpild_train(
          config_file="./data/AFPILD/afpild_spec_gcc_fusion.json",
          root_dir='./data/AFPILD',
          task='accil_ana_shoe',
          epochs=1,
          num_workers=4,
          dataset_dir='./data/AFPILD/')





.. rst-class:: sphx-glr-script-out

 .. code-block:: none

    warning: logging configuration file is not found in data/AFPILD/logger/logger_config.json.
    DEBUG:train:+---------------------+
    |TRAIN: accil_ana_shoe|
    +---------------------+
    INFO:model:CRNN(
      (conv_block_list): ModuleList(
        (0): ConvBlock(
          (conv): Conv2d(10, 32, kernel_size=(3, 3), stride=(1, 1), padding=(1, 1))
          (bn): BatchNorm2d(32, eps=1e-05, momentum=0.1, affine=True, track_running_stats=True)
        )
        (1): MaxPool2d(kernel_size=(2, 2), stride=(2, 2), padding=0, dilation=1, ceil_mode=False)
        (2): Dropout2d(p=0.05, inplace=False)
        (3): ConvBlock(
          (conv): Conv2d(32, 64, kernel_size=(3, 3), stride=(1, 1), padding=(1, 1))
          (bn): BatchNorm2d(64, eps=1e-05, momentum=0.1, affine=True, track_running_stats=True)
        )
        (4): MaxPool2d(kernel_size=(2, 2), stride=(2, 2), padding=0, dilation=1, ceil_mode=False)
        (5): Dropout2d(p=0.05, inplace=False)
        (6): ConvBlock(
          (conv): Conv2d(64, 128, kernel_size=(3, 3), stride=(1, 1), padding=(1, 1))
          (bn): BatchNorm2d(128, eps=1e-05, momentum=0.1, affine=True, track_running_stats=True)
        )
        (7): MaxPool2d(kernel_size=(2, 1), stride=(2, 1), padding=0, dilation=1, ceil_mode=False)
        (8): Dropout2d(p=0.05, inplace=False)
      )
      (gru): GRU(1024, 128, num_layers=2, batch_first=True, dropout=0.05, bidirectional=True)
      (fnn_list): ModuleList(
        (0): Linear(in_features=128, out_features=128, bias=True)
        (1): Linear(in_features=128, out_features=80, bias=True)
      )
    )
    INFO:train:CRNN(
      (conv_block_list): ModuleList(
        (0): ConvBlock(
          (conv): Conv2d(10, 32, kernel_size=(3, 3), stride=(1, 1), padding=(1, 1))
          (bn): BatchNorm2d(32, eps=1e-05, momentum=0.1, affine=True, track_running_stats=True)
        )
        (1): MaxPool2d(kernel_size=(2, 2), stride=(2, 2), padding=0, dilation=1, ceil_mode=False)
        (2): Dropout2d(p=0.05, inplace=False)
        (3): ConvBlock(
          (conv): Conv2d(32, 64, kernel_size=(3, 3), stride=(1, 1), padding=(1, 1))
          (bn): BatchNorm2d(64, eps=1e-05, momentum=0.1, affine=True, track_running_stats=True)
        )
        (4): MaxPool2d(kernel_size=(2, 2), stride=(2, 2), padding=0, dilation=1, ceil_mode=False)
        (5): Dropout2d(p=0.05, inplace=False)
        (6): ConvBlock(
          (conv): Conv2d(64, 128, kernel_size=(3, 3), stride=(1, 1), padding=(1, 1))
          (bn): BatchNorm2d(128, eps=1e-05, momentum=0.1, affine=True, track_running_stats=True)
        )
        (7): MaxPool2d(kernel_size=(2, 1), stride=(2, 1), padding=0, dilation=1, ceil_mode=False)
        (8): Dropout2d(p=0.05, inplace=False)
      )
      (gru): GRU(1024, 128, num_layers=2, batch_first=True, dropout=0.05, bidirectional=True)
      (fnn_list): ModuleList(
        (0): Linear(in_features=128, out_features=128, bias=True)
        (1): Linear(in_features=128, out_features=80, bias=True)
      )
    )
    Max LR: 0.001
    DEBUG:trainer:Train Epoch: 1 [0/171 (0%)] loss: 0.017025
    DEBUG:trainer:Train Epoch: 1 [11/171 (6%)] loss: 0.014435
    DEBUG:trainer:Train Epoch: 1 [22/171 (13%)] loss: 0.012931
    DEBUG:trainer:Train Epoch: 1 [33/171 (19%)] loss: 0.012686
    DEBUG:trainer:Train Epoch: 1 [44/171 (26%)] loss: 0.012567
    DEBUG:trainer:Train Epoch: 1 [55/171 (32%)] loss: 0.012573
…
